assets/model.tflite (tflite, 15512 bytes, 6 tensors)

sequential_1/dense_5/BiasAdd/ReadVariableOp f4 [19]
000000 a1 12 00 be 32 b1 67 bd d2 34 de 3c 7b a5 95 bc
       -0.12507106 -0.05656547 0.027124796 -0.018267384
000010 6d a7 9c 3c 34 08 66 3d c7 02 c6 3d 56 5c 15 bd
       0.019122804 0.056160167 0.096684985 -0.03646501
000020 13 11 bb bc ad ff 58 bd f2 a3 bd bc cc d4 b3 3c
       -0.02283529 -0.052978206 -0.023149464 0.021952055
000030 74 f8 6c bc 89 80 b8 bc 77 5a 87 3d a4 13 d7 bc
       -0.014463533 -0.022522228 0.06609052 -0.026254483
000040 5c c4 63 bd 57 74 e0 3d ed 9d d1 3a
       -0.055607185 0.1095969 0.00159925

sequential_1/dense_4/BiasAdd/ReadVariableOp f4 [32]
000000 7f 6d 19 3e 9f f0 95 3d 78 60 7a 3d ab a4 25 3e
       0.14983176 0.073212855 0.061127156 0.16176097
000010 bc b8 0f 3e d9 fc 9a bc 79 be a2 3d 34 d5 4c bd
       0.14035314 -0.018919395 0.07946486 -0.050008014
000020 94 91 9a 3d 1e dc 46 bb ec c7 1e 3e 49 69 17 3e
       0.07547298 -0.0030343602 0.15505952 0.14786257
000030 4a 73 77 3d ca f6 82 3d c7 7e 16 3e c4 15 e6 3c
       0.060412683 0.063947275 0.14696799 0.02808655
000040 44 9b 08 3e e9 3d 85 3d 46 a6 18 3d 84 f7 d9 3d
       0.13340479 0.06505949 0.037267946 0.10642913
000050 f8 20 07 3e da db fd 3d 93 9b 89 3d 98 c4 8d 3d
       0.1319617 0.12395449 0.067191266 0.06922263
000060 36 dd d4 3d 97 80 26 3e 7a 3e 04 3d 28 0c d3 3d
       0.10393755 0.1625999 0.032286145 0.10305053
000070 bc c5 bd bb 24 93 20 3d d2 cf 3d 3c 1f ed 80 3d
       -0.005791394 0.039202824 0.011585193 0.06295227

sequential_1/dense_3/BiasAdd/ReadVariableOp f4 [64]
000000 d9 cc f2 3d fb 59 4c 3e c0 ba 38 3e 64 aa cf 3d
       0.11855478 0.199562 0.1803999 0.10139921
000010 8d 59 20 3e 81 a9 25 3e c0 24 f8 3d 74 c3 f9 3d
       0.15659161 0.16177942 0.121163845 0.12195483
000020 a0 75 c2 3d 3a 7b 7f 3d 76 32 d7 3d db 63 34 3e
       0.094950914 0.062373377 0.105076715 0.17616217
000030 d5 3b 04 3b 71 37 44 3e 57 ef ea 3d 4d f6 1f 3e
       0.0020177264 0.19161774 0.11471432 0.156213
000040 95 75 61 3e cf b3 22 3e c4 e9 14 3e 07 45 02 3e
       0.2201751 0.15888904 0.145423 0.12721644
000050 a4 c1 14 3e 41 77 8f 3d 6f ba 86 3e ad 03 d2 bc
       0.14526993 0.07005168 0.26314113 -0.025636518
000060 4f 38 bb 3d 7b 7b 24 3e 24 13 f5 3d aa a9 67 3e
       0.091415994 0.16062729 0.119665414 0.22623315
000070 5c 20 5d 3e ff 32 3e 3d 00 b4 44 3e 71 25 3d 3b
       0.21594375 0.046435352 0.1920929 0.0028861428
000080 b0 de 1a 3e b2 9a 7a 3e 56 f8 f2 3d 87 a8 82 3c
       0.15124011 0.24473074 0.118637726 0.0159495
000090 a6 7b 8c 3c eb 00 39 3e 7e af 25 3e 34 fe 70 3d
       0.017148804 0.18066756 0.16180226 0.058836177
0000a0 dd 9b d2 3d 1d a0 0b 3e b8 c1 98 3b 6d 40 95 3d
       0.10283635 0.13635297 0.004661765 0.07287679
0000b0 73 36 71 3e 5d 19 33 3e 86 d0 86 3e 51 f0 4e 3e
       0.23555927 0.17490144 0.26330966 0.20208861
0000c0 1e 7a 61 3e 2a 0b 1c 3e 4f f2 38 3e 9e 76 17 3e
       0.2201924 0.15238634 0.18061183 0.14791343
0000d0 15 61 83 3e ad 5a 1c 3e 20 a4 58 3e 4f 4a 68 3e
       0.25660005 0.15268965 0.21156359 0.22684596
0000e0 1a d8 3d 3e c9 72 f0 3d 4f f7 7e 3e 0e 3a 7d 3e
       0.18539467 0.117406435 0.24899028 0.24729177
0000f0 f6 8e 10 3e 83 cb 2f 3e 8a 22 7f 3e c1 93 31 3e
       0.14117035 0.17167477 0.2491552 0.1734152

sequential_1/dense_3/MatMul f4 [64, 9]
000000 fa 58 00 bf e9 4b 97 be 60 9e f5 be bb 2f 64 3d
       -0.5013577 -0.29550102 -0.47972393 0.05570958
000010 cf 21 7b 3e 20 ca a3 bd fb b8 6b 3e 9f 45 7b be
       0.24524616 -0.07997537 0.23019783 -0.24538277
000020 26 cb d2 be ce 6a 26 be 52 69 88 3e 59 2b 71 3e
       -0.41170615 -0.1625168 0.26642853 0.23551692
000030 20 3a 5f bd f5 12 eb 3d fa 55 f5 3d a0 c2 a5 3e
       -0.05449879 0.11478225 0.11979289 0.3237505
000040 c0 63 a6 be ad da 74 3e a2 42 b5 bc 11 9c 1d 3e
       -0.32497978 0.23911543 -0.0221265 0.15391566
000050 80 08 0a 3e e6 18 8b bc a3 d3 cc 3d 5d f2 75 be
       0.13479805 -0.016979646 0.10001304 -0.24018236
000060 ab 2e df 3d e6 1c c2 be 01 a1 c7 3e f1 91 3a 3d
       0.10897573 -0.37912673 0.38990024 0.045549337
000070 73 c9 67 be 33 48 81 3e d2 99 9e 3c bb 79 e2 be
       -0.2263544 0.25250396 0.019360457 -0.44233498
000080 0c 5f 13 bd de 6b e5 bd e8 cd 82 3e 8d 28 b5 3e
       -0.035979316 -0.11202215 0.2554772 0.353825
000090 df 8c 8c 3e 9b d0 0a 3e 05 1e 53 3e 37 5e 8d be
       0.27451226 0.13556139 0.2061692 -0.27610943
0000a0 39 0f e8 bc 68 28 35 bd 03 94 fb bb 59 1c 96 3d
       -0.028327571 -0.044227988 -0.0076775565 0.07329626
0000b0 d9 42 18 3e 1c f7 79 be 50 9c 80 3e 53 f3 c4 3e
       0.1486925 -0.24410671 0.25119257 0.38466892
0000c0 17 5e 58 3e c2 41 6f bd 67 63 a1 be ff 2b 9b 3d
       0.21129642 -0.05841232 -0.3152115 0.07576751
0000d0 a6 ed 99 3e ec df bb bc 1d 7e 24 3d b7 98 ad be
       0.30064124 -0.022933923 0.040159333 -0.33905575
0000e0 47 a0 98 be 62 91 2b 3e ae 59 a0 3e d7 0f 14 3e
       -0.29809782 0.16754678 0.3131842 0.14459167
0000f0 0a e8 11 be e7 1a bf 3e 42 92 43 bb 77 c4 68 3e
       -0.14248672 0.37325212 -0.0029841815 0.22731195
000100 06 a6 fc bd 30 5b 90 be 3d 64 99 3e 3f 9c c1 3e
       -0.12336354 -0.2819457 0.29959288 0.3781452
000110 a2 df 2c 3e 76 d3 2c 3e a3 c7 dc 3e f0 89 0e 3e
       0.16882184 0.16877541 0.4312106 0.13919806
000120 2e d9 a2 3e 17 6d ee 3c 32 13 b9 3d 32 1b be bb
       0.3180632 0.029104752 0.09036864 -0.005801582
000130 d1 fc a2 3e 70 6f bd 3b 76 40 07 3c 47 40 81 3e
       0.3183351 0.0057811067 0.008255115 0.25244352
000140 9f 02 99 be 0f 1a cc 3e 1c 76 9d 3e a3 49 56 bd
       -0.29884812 0.3986363 0.30754173 -0.05231632
000150 2a bd 1c be aa 63 f8 be 6e ae 1e 3c 00 bc e3 bd
       -0.15306535 -0.48513538 0.009685142 -0.111198425
000160 80 9c a3 3d 44 e1 41 be 7a 46 9b 3e 08 4f 78 be
       0.079888344 -0.18933588 0.30327207 -0.24248898
000170 55 b5 99 bd 41 07 55 3e 76 ff 33 3c cb 5f d1 bd
       -0.075052895 0.20803548 0.0109862 -0.10223349
000180 85 63 26 3b 4b b2 5a 3e a1 79 ae 3e 32 e0 8f 3a
       0.0025388908 0.21357076 0.3407717 0.001097685
000190 dc cf 42 3e 69 96 35 3e 51 73 8c 3c 8a a7 46 be
       0.19024605 0.17733158 0.01714483 -0.19399849
0001a0 77 37 4a 3e e3 92 0d bd 5c ab a7 3e 5d 1a cf 3e
       0.1974772 -0.03456391 0.32747924 0.404498
0001b0 90 84 d3 3e a6 11 92 bd 2b 2b 68 be c9 99 62 be
       0.41312075 -0.071322724 -0.22672717 -0.22128977
0001c0 ab 8c 04 be 8f b0 87 3e 07 47 94 3e ac d5 a5 3c
       -0.12944286 0.2650189 0.2896044 0.020243488
0001d0 09 c9 fc bd f5 5e 22 be c3 0d 47 be 11 c6 f0 3e
       -0.12343032 -0.15856536 -0.19438843 0.47026113
0001e0 29 fe 8d be 84 fa b9 3e d0 64 a5 be 4d 89 37 3e
       -0.2773297 0.3632394 -0.32303476 0.1792347
0001f0 50 b4 94 bd b1 63 a6 3d 08 66 85 be 27 b2 c4 bd
       -0.072609544 0.081244834 -0.26054406 -0.09604292
000200 4f b4 5f be 7c 7e 5c 3d 11 b6 84 3e f0 a5 c0 3d
       -0.21846126 0.053831562 0.25920156 0.0940665
000210 c3 e3 a3 be 61 fa c4 be ea 73 ea 3e a4 08 31 be
       -0.32009706 -0.38472274 0.4579156 -0.17288452
000220 19 a1 d0 3c c5 ad 21 3e 4a c7 da 3e 25 7a ac be
       0.025467442 0.15788944 0.4273017 -0.3368694
000230 fd d2 6d 3e a0 3b ad 3e 0f 8d b5 be 0d 91 d2 3e
       0.23225017 0.33834553 -0.35459182 0.4112629
000240 12 3a 42 be 98 18 46 3e 0f d5 ae be 3c 10 97 3e
       -0.18967465 0.1934532 -0.34146926 0.29504573
000250 18 cf 8b be b2 54 84 be 9e ce 97 be c5 0f 9b be
       -0.27306437 -0.25845867 -0.29649824 -0.3028547
000260 6c c4 09 3e 4a 5d 91 3e 8f 3d c8 be c5 b3 e5 be
       0.13453835 0.28391486 -0.39109465 -0.44863716
000270 8f fc 19 be c3 6f 1b 3e 6e 92 da 3d 86 80 40 bd
       -0.1503775 0.15179352 0.106724605 -0.04699757
000280 7b 59 e0 3d 28 10 78 3e f1 db d7 be 9d 18 c1 3e
       0.10954567 0.24224913 -0.4215999 0.3771409
000290 99 22 36 be 41 60 e9 3b 55 4f 4c be be d6 30 be
       -0.17786635 0.00712207 -0.19952138 -0.17269418
0002a0 c5 fb 5f be f8 08 4c be 4b 1d f8 3e 5a 2f 8c 3e
       -0.21873386 -0.19925296 0.4845985 0.27379876
0002b0 b9 f7 00 be 69 71 47 be 4d 11 0a 3e fa fb 5d be
       -0.12594499 -0.19476856 0.13483162 -0.21678153
0002c0 ea 34 85 be d1 03 49 3e 0f ce f8 3d bf 5d b9 3e
       -0.26016933 0.19630362 0.121486776 0.36204335
0002d0 c1 ad ab be 58 38 cf be 8a f2 00 be 37 ad e9 be
       -0.33531 -0.40472674 -0.12592521 -0.45639965
0002e0 00 9d 40 be f1 13 ab 3e 26 f0 b3 3e d6 20 94 be
       -0.18809891 0.33413652 0.35144156 -0.28931302
0002f0 de dc 39 3e e6 d0 9e 3d ab d5 d4 be cb c5 6d be
       0.1815066 0.07754688 -0.41569266 -0.23219983
000300 09 d0 8c 3e cd c4 5c bd 9f 6d 62 be 0e 52 cc 3e
       0.27502468 -0.05389862 -0.2211213 0.39906353
000310 ac af d3 bd eb 66 bd 3e 06 34 d1 bd 17 57 8b 3e
       -0.10336241 0.36992583 -0.10215001 0.27214882
000320 d4 6d 89 3d 68 e3 07 be 88 20 ba 3e fb 8b 66 3e
       0.06710401 -0.13270342 0.36352944 0.22514336
000330 17 9e dd be 45 87 39 3e 41 c4 c8 be 93 42 88 be
       -0.43284675 0.18118007 -0.3921223 -0.26613292
000340 64 96 a1 be ff c3 bb be 46 55 19 bc 6e 54 9d 3e
       -0.3156005 -0.3667297 -0.00935871 0.30728477
000350 2c 8a 10 3d d3 6e b0 3e b0 d7 28 3e 41 c8 1d bb
       0.03528802 0.34459552 0.16488528 -0.002407566
000360 bd a9 57 bd ba bd db be c4 38 b6 bd ed 61 5d be
       -0.05265211 -0.42918187 -0.08897546 -0.21619387
000370 9f d3 3d be 2d d4 45 3e 8d 38 ca 3e 8d 77 20 3e
       -0.18537758 0.1931922 0.3949627 0.15670605
000380 e2 ab 25 3e 4b a4 8c 3e fe ef 9b 3e 84 0c 43 3e
       0.1617885 0.27469096 0.30456537 0.19047743
000390 ba c0 94 3e fb ac 85 3e 95 fb 76 3e 55 25 ec bd
       0.2905329 0.26108536 0.24119408 -0.11530558
0003a0 a8 b0 9e bd 97 71 bd be 0c 4f 81 bd e8 a1 33 be
       -0.07748538 -0.37000725 -0.06313905 -0.17542231
0003b0 50 1b e2 be 36 81 cc be d7 9c 17 3e fe 3a b8 bc
       -0.44161463 -0.3994233 0.14805923 -0.022489067
0003c0 df 0e c6 be 51 b8 c0 3e 7e 7d cb 3e 11 17 c8 be
       -0.3868322 0.37640622 0.3974418 -0.39080098
0003d0 f5 63 9d be e9 d0 f6 bc 4e 09 80 bd 31 6f 13 3f
       -0.30740324 -0.030128913 -0.06251775 0.5759154
0003e0 2e e2 cd bd 47 10 48 3c 13 11 1f be e9 07 87 be
       -0.10052906 0.012210912 -0.15533857 -0.26373222
0003f0 75 86 9f 3e 0b d0 04 be e1 44 d1 3e ff 5e 30 be
       0.3115727 -0.12969987 0.40872863 -0.17223738

sequential_1/dense_4/MatMul f4 [32, 64]
000000 72 76 df 3e 4e e1 3c 3d 36 65 a1 3e dd b5 e0 bd
       0.43645054 0.046113305 0.3152253 -0.10972188
000010 a1 c8 1d 3e 27 c1 33 3e 69 45 5f 3e 41 79 45 be
       0.15408565 0.1755415 0.21803822 -0.19284536
000020 db ae bc 3e af 36 ce be a5 ba 8d bc 45 5a 89 bb
       0.36852154 -0.40276095 -0.017300913 -0.004191669
000030 d1 22 44 3e df e4 b9 3e 12 f0 89 be e4 4d 37 3e
       0.19153906 0.36307427 -0.26940972 0.17900807
000040 07 51 21 3d 09 80 7b be 25 b9 98 be f5 bb 1e be
       0.039383914 -0.2456056 -0.29828754 -0.15501387
000050 fd 4f 41 3e 19 45 f7 3d d2 52 a6 3e 30 01 85 3d
       0.1887817 0.12073726 0.32485062 0.06494367
000060 f1 d4 f6 bd 35 81 ac 3e a2 21 e1 3d b6 7b 68 3e
       -0.12052334 0.33692327 0.10992743 0.22703442
000070 6a 69 bd 3e 8c 75 d9 3e 63 a6 93 be 24 de 68 bd
       0.36994487 0.42472494 -0.2883788 -0.056852475
000080 f8 3e 0f 3d 60 ee c1 bd 1d b8 a7 3e a3 23 95 3e
       0.03497216 -0.094692945 0.32757655 0.2912875
000090 02 48 fd 3d b1 1e f2 3d e3 fe 3d bd 86 ee bc bd
       0.1236725 0.1182226 -0.046385657 -0.09225182
0000a0 21 7f 8c be 6c b2 08 3e 5d 36 6c be 20 c3 d9 3c
       -0.27440742 0.13349313 -0.23067613 0.0265823
0000b0 fc 68 74 be af 1c 46 3d 9a 17 f1 bc 8f 89 47 bd
       -0.23868173 0.0483672 -0.0294302 -0.04871517
0000c0 a3 5a 77 3d 8f ce 3d be 2f 5a 51 3d 39 5c 06 3e
       0.060389172 -0.18535827 0.051111396 0.13121118
0000d0 3f f6 bd 3e e6 ff c3 be 88 1a 80 3e 9d 14 fb 3e
       0.37101933 -0.38281173 0.25020242 0.49039164
0000e0 1f 2c a8 3e 25 e7 c1 3d a1 ff 62 3e e4 92 28 3e
       0.32846162 0.094679154 0.22167827 0.16462284
0000f0 19 2a 21 be eb cb 7b 3e e3 f2 a0 3d 1b c4 aa 3d
       -0.15738715 0.24589507 0.07858827 0.083381854
000100 ac 4e bb 3e 90 27 76 3e ef 7a 8a 3d d8 e8 aa be
       0.3658346 0.2403853 0.06761729 -0.3338077
000110 2a fe f4 bd c8 97 19 be 05 b2 a5 3e 65 2d ce 3e
       -0.119625404 -0.14999306 0.3236238 0.40269008
000120 d8 44 74 be 1d c8 c6 be 57 d4 04 3e e9 ce 9d 3d
       -0.23854387 -0.3882455 0.12971626 0.077054806
000130 47 f3 84 be 5c 71 59 be e9 b5 50 3e 13 17 e4 bd
       -0.25966856 -0.2123465 0.20381893 -0.111372136
000140 05 85 c4 3c 4a 8c 07 3d d8 8e 7c 3e 4a 32 3f bd
       0.02398921 0.033092774 0.24663866 -0.04667882
000150 b3 ed 82 3d 63 ce 82 3e 21 e0 c5 bd 68 14 cb 3e
       0.06392994 0.25548086 -0.0966189 0.39664006
000160 22 18 a5 3c c7 26 77 3e 0f 5b c1 3e 62 d0 a6 3e
       0.020153109 0.24135886 0.37764785 0.32580858
000170 d8 62 c9 be 2e 40 bf be 42 84 9f 3d 38 df 95 3e
       -0.39333224 -0.37353653 0.07788898 0.29271865
000180 83 81 3f be d6 23 78 3e 77 1c 07 be 1c 8f b1 be
       -0.18701749 0.2423242 -0.13194452 -0.34679496
000190 7f 5a 9a be 3a 48 ad 3e 3d 6e d5 bc 39 b3 b4 bc
       -0.30147168 0.33844167 -0.026053542 -0.022058116
0001a0 f3 71 24 be a2 de 1c be 06 31 90 be 10 0c 9a bd
       -0.16059093 -0.15319303 -0.28162402 -0.07521832
0001b0 7e 57 a5 3e 9e 51 99 be 97 76 d9 3d 3a 1f a3 3e
       0.32293314 -0.2994508 0.10618322 0.3185976
0001c0 ef e4 32 3e fa 19 e0 3d e2 44 8f be fe d0 22 3e
       0.17470144 0.10942455 -0.2798224 0.15900037
0001d0 14 5a 39 be 97 53 e0 bd c2 92 50 be fc 2d df bd
       -0.18100768 -0.109534435 -0.20368484 -0.10897443
0001e0 65 7b 99 3e da ca c2 3d 0e ad 8f 3c 5d 18 5b 3e
       0.29976955 0.09511347 0.017538574 0.21396013
0001f0 b3 f7 71 be 37 c6 ef 3c 76 e9 97 3e f5 f6 96 be
       -0.23629646 0.02926932 0.29670304 -0.29485288
000200 e9 71 4a be 33 30 24 3e ec bd b4 3c dd c2 1a be
       -0.19770016 0.16034012 0.022063218 -0.15113397
000210 94 83 67 3d 35 da a8 3e f5 c4 82 bc 5c eb 84 be
       0.056521967 0.3297898 -0.015963057 -0.25960815
000220 bf a3 76 be 91 80 af bd d7 22 17 3e 8d 2b 40 3e
       -0.24085902 -0.08569444 0.14759384 0.18766613
000230 01 e9 48 be c5 b9 33 bc 2e 61 31 3e f1 86 58 3d
       -0.19620134 -0.010969584 0.17322227 0.052863065
000240 92 c8 30 3e a4 47 c5 bd 6d 82 83 bd 10 70 28 3e
       0.17264012 -0.09632805 -0.06421361 0.16448998
000250 3e de af be 20 cb 0d 3e 22 cf 5c be 48 cf 6e bc
       -0.34349245 0.13847017 -0.2156339 -0.014575787
000260 aa 51 5a be e1 ac eb 3b 2e 6c 78 bd 2a 72 db bb
       -0.21320215 0.0071922396 -0.060650043 -0.006696959
000270 66 c0 d9 bd 8c b4 ad bd a9 07 9b 3e 13 7a 8d be
       -0.106324 -0.08481702 0.30279282 -0.27632198
000280 a5 b8 c8 3d f5 09 8d 3e 0e 77 72 3e 8a 3c b3 bd
       0.09800843 0.2754666 0.23678228 -0.08751781
000290 c2 43 4b bd b6 7b e6 3c 59 40 55 3e 10 ef cd bd
       -0.049625166 0.028135162 0.20825328 -0.10055363
0002a0 77 36 10 3d f9 41 83 be bd b7 5a bd 3f ba d7 3c
       0.03520819 -0.2563627 -0.053397883 0.026333926
0002b0 b7 9f d0 3e 1b 98 15 be 26 3f 26 3e 3d ae c1 3e
       0.40746853 -0.14608805 0.16235027 0.37828246
0002c0 33 23 73 bd 78 bc 61 be a7 c5 df bd 0a 61 03 3e
       -0.05935974 -0.22044551 -0.10926371 0.12829986
0002d0 56 2d 2a 3d cc 10 97 3d b6 48 b3 3d 22 70 25 3e
       0.041547142 0.073762506 0.08754103 0.16156057
0002e0 a3 d7 30 3d 07 7c 9c bd 48 4c 90 be 76 c7 42 3d
       0.043174397 -0.07640844 -0.28183198 0.047553502
0002f0 52 21 a1 bd 3d 13 b1 bd 21 ff d4 bd 7b 53 a6 be
       -0.078676835 -0.086462475 -0.104002245 -0.32485566
000300 eb c3 fa bd d5 f4 d7 3e 0a ec 1a 3e 05 3b 9b 3c
       -0.122444 0.4217898 0.15129104 0.018949041
000310 c1 7a b4 ba a2 9b 38 3e 9a fa 3d be b4 6a 37 be
       -0.0013769494 0.18028119 -0.18552628 -0.17911798
000320 dd 55 3d be 9c 0b 33 3e 9f df 94 3e ff ae 06 3e
       -0.18489785 0.17484897 0.2907686 0.13152693
000330 f9 8a b3 be ef 31 8b 3e f2 09 46 3d e4 2b bd 3e
       -0.35066965 0.27186534 0.04834933 0.36947548
000340 54 0d 6d 3e c0 91 6a bd 96 f2 31 bd 20 1c 7a 3e
       0.23149616 -0.057267904 -0.04344424 0.24424791
000350 c1 46 cd 3b 2b f3 c7 3e 1d 18 8b be d5 36 15 3d
       0.006264538 0.3905271 -0.27166834 0.036429245
000360 68 33 69 3e f1 16 20 3d 2a c2 a1 bd 1e 2c 15 bd
       0.22773516 0.03908438 -0.07898362 -0.036419027
000370 50 c2 bf bd de 99 f8 3d 83 0c 17 be 51 d0 c2 be
       -0.09363234 0.12138723 -0.14750867 -0.38049558
000380 88 3b 86 3e 4f a1 a9 bd d3 f9 19 3c 16 93 a8 3e
       0.26217294 -0.0828272 0.009397942 0.32924718
000390 e7 2d 92 3e 87 64 4e 3e 5d 82 b5 bd 5b 73 d8 3c
       0.28550646 0.20155536 -0.088627554 0.026422193
0003a0 bd 99 86 be 28 10 dd 3e 50 3e 00 be 7b 9e b3 3e
       -0.26289168 0.4317639 -0.1252377 0.35081849
0003b0 32 1a 9c 3e 0a 5d 2e bd 03 2a 62 3e 05 99 24 bd
       0.30488735 -0.042569198 0.22086339 -0.040184993
0003c0 d7 ae e4 bc c8 9b c8 bc b2 44 ae 3d d4 48 0d be
       -0.027915401 -0.024488345 0.08509196 -0.13797313
0003d0 19 2a 5f 3e d6 60 34 bd b8 6f c3 3e ea 04 b1 bd
       0.21793403 -0.044037662 0.38171172 -0.086435154
0003e0 2c f0 46 3e 42 cc 14 3e 8d 83 81 be bc aa ab 3e
       0.19427556 0.14531043 -0.25295678 0.33528697
0003f0 a5 61 14 bd c4 54 33 3e c4 6a 54 3e 5c de cc 3e
       -0.036225934 0.17512804 0.20743853 0.40013397

sequential_1/dense_5/MatMul f4 [19, 32]
000000 00 38 61 3e bd db 9c 3d f9 01 7e 3d 3c 83 de bc
       0.21994019 0.07659099 0.0620136 -0.027162187
000010 e6 58 bd 3d 7b 13 ae be 6f b4 e3 bc 8b 86 9a 3c
       0.09245472 -0.33999237 -0.027795998 0.018862983
000020 f0 5c 7c be 53 0d cf 3e 61 54 85 3e 30 d7 07 3e
       -0.24644828 0.40439853 0.26040938 0.13265681
000030 b1 94 d2 3e 5f 4b c7 be 11 3b da be 74 7f 92 be
       0.41129068 -0.3892469 -0.4262319 -0.28612864
000040 83 ac cd be 8e 29 6b be 0a f6 93 be 3e 48 4c 3e
       -0.40170678 -0.2296507 -0.2889865 0.19949433
000050 cc 0c d7 be b2 ac ee be e5 fe 42 be ee 83 7d bd
       -0.4200195 -0.4661613 -0.19042547 -0.061893396
000060 e4 f7 e6 3e bd c0 f7 be 87 4c 96 be 5c 15 62 be
       0.45111 -0.48389235 -0.2935526 -0.2207846
000070 76 9b 60 3e f5 5f e1 be 60 13 f5 3c 1d 9c 85 3e
       0.21934304 -0.44018522 0.029916465 0.26095667
000080 15 bd e1 be 89 10 d6 be cd 61 b5 be 88 23 c2 be
       -0.4408957 -0.4180949 -0.3542618 -0.37917733
000090 66 a8 8e be f9 c2 62 3d 84 41 e9 3e 5f 25 2b 3e
       -0.27862853 0.05536172 0.45557797 0.16713475
0000a0 1e b5 03 bf 2c 60 d7 be e9 37 0e 3e b5 b9 98 be
       -0.5144824 -0.4206556 0.13888516 -0.29829183
0000b0 74 eb d0 3e 47 83 b2 bd 9f 17 24 bf c6 ed e1 3e
       0.40804636 -0.087164454 -0.6409854 0.4412672
0000c0 f4 92 8b be 1d 44 0b bf c5 de c5 be c2 64 ac 3e
       -0.27260554 -0.5440081 -0.38646522 0.33670622
0000d0 94 1f 17 3e 47 83 3d 3e 4e 2f 80 3e ed fd 0e be
       0.1475814 0.1850711 0.2503609 -0.13964052
0000e0 87 f6 03 3e 11 08 24 bd 75 33 c1 3e 24 5b 5d be
       0.12887011 -0.040046755 0.3773457 -0.21616799
0000f0 d8 ad a7 be 2b 60 80 3d 1d 5a 25 bd 1d f8 a1 3e
       -0.3274982 0.062683426 -0.04036914 0.31634608
000100 9a 9b c8 be e8 7f 84 3d 00 d1 ee 3e b1 f7 5c bb
       -0.39181215 0.06469709 0.4664383 -0.0033716972
000110 db 7f 76 be 7d fd 9f be 2d 08 5a 3e cc cc 07 bf
       -0.2407221 -0.31248084 0.21292181 -0.5304687
000120 f0 53 76 3e c4 b8 dc bd 69 71 8c 3e 6d 21 92 bd
       0.24055457 -0.10777429 0.27430275 -0.07135282
000130 06 3b 37 3e c3 86 0c be b6 f1 a4 3e 21 9c 52 3e
       0.1789361 -0.13723283 0.3221566 0.20567371
000140 8e 22 25 bf e8 0e 15 3e fb b9 d3 be 2e 39 4e be
       -0.6450585 0.14556468 -0.4135283 -0.20139
000150 b4 db ff bd 9c d9 d4 be c2 38 0f be db 4e 04 3d
       -0.12493077 -0.41572273 -0.13986495 0.032301765
000160 54 e1 60 b9 98 3e 88 3e 42 2d 32 3d 0f 72 ab 3e
       -0.00021446246 0.26610255 0.043500192 0.33485457
000170 0d 75 9a 3e a5 4e f1 bc d4 ae a1 be aa f6 96 3e
       0.30167428 -0.029456446 -0.31578696 0.29485065
000180 b4 b4 cb be d5 24 f5 3b 4b c6 ad be 7d 94 dd 3d
       -0.39786303 0.0074811974 -0.33940348 0.108193375
000190 42 97 87 3e 49 1c 0d 3d 9a 7f 85 be 97 a3 af 3e
       0.26482588 0.034450803 -0.26073915 0.34304497
0001a0 fd 75 87 3d cc 18 b3 bd 6a fb b6 be 42 ad f5 be
       0.06614301 -0.08744964 -0.3573869 -0.47983748
0001b0 d1 6b 36 be de 4f 85 bd 6a b3 e9 3c ba 7e 95 3e
       -0.17814566 -0.06509374 0.028527934 0.29198247
0001c0 dc f4 4a 3e f1 e5 9b 3e f1 f9 15 3e 3d 10 9d bd
       0.19819969 0.3044887 0.14646126 -0.07669113
0001d0 f9 66 0e bf 7a 06 e8 bd be c2 91 3e fb cb db 3d
       -0.55625874 -0.1132936 0.2846889 0.107322656
0001e0 e7 35 e7 be c8 42 c7 be 63 6f 09 3e 68 20 e8 be
       -0.45158312 -0.38918138 0.13421397 -0.45337224
0001f0 e8 89 48 be 74 2c f8 be 5f 25 34 3e df 9e 51 be
       -0.19583857 -0.48471415 0.17592381 -0.20470761
000200 3e 6a d7 bd 91 4d 9b 3e 79 02 e1 3a 35 61 39 3e
       -0.10518311 0.30332616 0.0017166875 0.18103488
000210 06 04 e0 3c c9 7a 36 3e d6 16 a0 bd 81 91 c4 be
       0.027345669 0.17820276 -0.078168556 -0.3839226
000220 51 04 f8 bc 85 bb bc be a5 4f 03 bf 11 bd f6 3e
       -0.030275496 -0.36861816 -0.512934 0.4819112
000230 5a 64 ac 3e 0f 0f e0 bd ec 9e 3f 3c 78 82 96 be
       0.33670312 -0.10940372 0.011695605 -0.29396415
000240 e1 2e 44 3d 13 1a d9 be 98 49 9e 3d af 40 41 be
       0.04789627 -0.42402706 0.07728881 -0.18872331
000250 ab ed fa be f3 83 a1 be cb 41 58 be f5 4d bd bd
       -0.4900945 -0.31545982 -0.21118848 -0.09243385
000260 a9 e6 4c be 8c 4b f9 be 9e c5 94 3e 11 97 95 be
       -0.20009865 -0.4869045 0.2905702 -0.29216817
000270 12 5b e6 3e 85 fa d9 be c4 ee ee 3e c0 7b 88 be
       0.44991356 -0.42573944 0.4666654 -0.26656914
000280 1b 4d 87 be c6 da 0a bf 1c de 84 be a7 45 3c be
       -0.26426014 -0.5424007 -0.25950706 -0.18385945
000290 4b ce 09 bf 8f e5 af bc 3b 79 42 bd f4 88 a1 be
       -0.53830403 -0.021471767 -0.047478896 -0.315498
0002a0 31 30 16 3e f3 84 d5 bd 95 9e bb be 9f 02 03 bd
       0.14666821 -0.10425749 -0.36644426 -0.03198492
0002b0 e9 e1 da be c1 55 15 be 35 41 0a bf 95 f2 f2 be
       -0.4275048 -0.14583494 -0.5400575 -0.474507
0002c0 a1 07 f4 3e cb e0 2f be 2c 82 ab 3e d1 44 fd be
       0.4766207 -0.17175595 0.3349775 -0.49466565
0002d0 43 a2 99 bd 4e 6b a4 3e 17 f5 04 3e 12 0b 00 3f
       -0.07501652 0.32113117 0.1298412 0.5001689
0002e0 33 0c 9b bd bc 65 00 bf 88 0a 55 be 74 80 c0 3c
       -0.07570686 -0.50155234 -0.20804799 0.023498751
0002f0 1b fe b1 3e 0a 36 1c bf ed 9e 99 3e 31 02 52 be
       0.3476418 -0.6101996 0.30004063 -0.20508648
000300 2a 7f 23 3e ac 1e c6 bd 72 d3 aa be f4 77 14 bf
       0.15966478 -0.09673819 -0.33364445 -0.57995534
000310 90 53 40 be 5d dc 5e 3d a3 82 13 3e a0 ff f3 be
       -0.18781877 0.054409374 0.14405303 -0.47655964
000320 67 9c 95 3e 73 82 84 bd 71 18 68 bd 28 18 c3 be
       0.29220888 -0.06470194 -0.056663934 -0.38104367
000330 38 61 13 3d fe a6 37 bf 33 77 b4 3d c0 2f 95 be
       0.035981387 -0.71739185 0.08811798 -0.29137993
000340 4d 6d 66 be 55 94 21 bf 61 e7 80 3e 63 56 2a 3e
       -0.22502632 -0.6311696 0.25176528 0.16634516
000350 0f 0b 84 3e ee 65 b0 3e f8 8b 05 3e 6d 5d d0 be
       0.25789687 0.34452766 0.13041675 -0.40696278
000360 da 33 c9 be bb b6 01 be c2 11 e5 be 18 ad 02 bf
       -0.39297372 -0.12667362 -0.4474011 -0.5104537
000370 66 8f e4 be 5f 52 0c bf ac 33 6f be a7 61 6f 3e
       -0.44640654 -0.5481319 -0.23359555 0.23377095
000380 84 30 98 3e 6d 5b 88 bd fb 33 94 3e 3c be b8 3d
       0.29724514 -0.06658063 0.28945908 0.09020659
000390 34 70 1e bf c2 03 95 be 88 75 a2 3d b7 2c d4 3e
       -0.6188996 -0.2910443 0.079325736 0.41440365
0003a0 08 2f b2 be 41 b5 56 be ba 7e 1a be 42 62 cc 3e
       -0.34801507 -0.2096758 -0.15087405 0.39918715
0003b0 5c f7 5a 3e ed 17 b7 be b8 a1 ac 3d 0e bc 30 be
       0.21383423 -0.3576044 0.08429283 -0.17259237
0003c0 f7 f9 5d 3e 0c 7f a2 3e 31 7a cc bc 7e c0 8b bd
       0.21677385 0.31737554 -0.02496061 -0.06823824
0003d0 84 15 2b bd 77 6c cd be c9 56 10 bf 92 f4 fe 3d
       -0.041768566 -0.40121815 -0.56382424 0.12448992
0003e0 29 d9 68 3e c3 ca 1d be 97 6c 1a ba c8 ce 54 3e
       0.2273909 -0.15409379 -0.0005890815 0.20782006
0003f0 2b d5 93 be 2e 74 34 be 6f 47 d5 be a3 09 3f 3c
       -0.28873572 -0.17622444 -0.41656062 0.011660012
